(pt3.7) C:\Users\paulc\Downloads\YOLOv3>C:/Users/paulc/.conda/envs/pt3.7/python.exe c:/Users/paulc/Downloads/YOLOv3/YOLOv3-CARRADA/model.py
====================================================================================================
Layer (type:depth-idx)                             Output Shape              Param #
====================================================================================================
YOLOv3                                             [16, 3, 13, 13, 8]        --
├─ModuleList: 1-1                                  --                        --
│    └─CNNBlock: 2-1                               [16, 16, 416, 416]        --
│    │    └─Conv2d: 3-1                            [16, 16, 416, 416]        432
│    │    └─BatchNorm2d: 3-2                       [16, 16, 416, 416]        32
│    │    └─LeakyReLU: 3-3                         [16, 16, 416, 416]        --
│    └─CNNBlock: 2-2                               [16, 32, 208, 208]        --
│    │    └─Conv2d: 3-4                            [16, 32, 208, 208]        4,608
│    │    └─BatchNorm2d: 3-5                       [16, 32, 208, 208]        64
│    │    └─LeakyReLU: 3-6                         [16, 32, 208, 208]        --
│    └─ResidualBlock: 2-3                          [16, 32, 208, 208]        --
│    │    └─ModuleList: 3-7                        --                        5,216
│    └─CNNBlock: 2-4                               [16, 64, 104, 104]        --
│    │    └─Conv2d: 3-8                            [16, 64, 104, 104]        18,432
│    │    └─BatchNorm2d: 3-9                       [16, 64, 104, 104]        128
│    │    └─LeakyReLU: 3-10                        [16, 64, 104, 104]        --
│    └─ResidualBlock: 2-5                          [16, 64, 104, 104]        --
│    │    └─ModuleList: 3-11                       --                        20,672
│    └─CNNBlock: 2-6                               [16, 128, 52, 52]         --
│    │    └─Conv2d: 3-12                           [16, 128, 52, 52]         73,728
│    │    └─BatchNorm2d: 3-13                      [16, 128, 52, 52]         256
│    │    └─LeakyReLU: 3-14                        [16, 128, 52, 52]         --
│    └─ResidualBlock: 2-7                          [16, 128, 52, 52]         --
│    │    └─ModuleList: 3-15                       --                        164,608
│    └─CNNBlock: 2-8                               [16, 256, 26, 26]         --
│    │    └─Conv2d: 3-16                           [16, 256, 26, 26]         294,912
│    │    └─BatchNorm2d: 3-17                      [16, 256, 26, 26]         512
│    │    └─LeakyReLU: 3-18                        [16, 256, 26, 26]         --
│    └─ResidualBlock: 2-9                          [16, 256, 26, 26]         --
│    │    └─ModuleList: 3-19                       --                        656,896
│    └─CNNBlock: 2-10                              [16, 512, 13, 13]         --
│    │    └─Conv2d: 3-20                           [16, 512, 13, 13]         1,179,648
│    │    └─BatchNorm2d: 3-21                      [16, 512, 13, 13]         1,024
│    │    └─LeakyReLU: 3-22                        [16, 512, 13, 13]         --
│    └─ResidualBlock: 2-11                         [16, 512, 13, 13]         --
│    │    └─ModuleList: 3-23                       --                        1,312,256
│    └─CNNBlock: 2-12                              [16, 256, 13, 13]         --
│    │    └─Conv2d: 3-24                           [16, 256, 13, 13]         131,072
│    │    └─BatchNorm2d: 3-25                      [16, 256, 13, 13]         512
│    │    └─LeakyReLU: 3-26                        [16, 256, 13, 13]         --
│    └─CNNBlock: 2-13                              [16, 512, 13, 13]         --
│    │    └─Conv2d: 3-27                           [16, 512, 13, 13]         1,179,648
│    │    └─BatchNorm2d: 3-28                      [16, 512, 13, 13]         1,024
│    │    └─LeakyReLU: 3-29                        [16, 512, 13, 13]         --
│    └─ResidualBlock: 2-14                         [16, 512, 13, 13]         --
│    │    └─ModuleList: 3-30                       --                        1,312,256
│    └─CNNBlock: 2-15                              [16, 256, 13, 13]         --
│    │    └─Conv2d: 3-31                           [16, 256, 13, 13]         131,072
│    │    └─BatchNorm2d: 3-32                      [16, 256, 13, 13]         512
│    │    └─LeakyReLU: 3-33                        [16, 256, 13, 13]         --
│    └─ScalePrediction: 2-16                       [16, 3, 13, 13, 8]        --
│    │    └─Sequential: 3-34                       [16, 24, 13, 13]          1,193,032
│    └─CNNBlock: 2-17                              [16, 128, 13, 13]         --
│    │    └─Conv2d: 3-35                           [16, 128, 13, 13]         32,768
│    │    └─BatchNorm2d: 3-36                      [16, 128, 13, 13]         256
│    │    └─LeakyReLU: 3-37                        [16, 128, 13, 13]         --
│    └─Upsample: 2-18                              [16, 128, 26, 26]         --
│    └─CNNBlock: 2-19                              [16, 128, 26, 26]         --
│    │    └─Conv2d: 3-38                           [16, 128, 26, 26]         49,152
│    │    └─BatchNorm2d: 3-39                      [16, 128, 26, 26]         256
│    │    └─LeakyReLU: 3-40                        [16, 128, 26, 26]         --
│    └─CNNBlock: 2-20                              [16, 256, 26, 26]         --
│    │    └─Conv2d: 3-41                           [16, 256, 26, 26]         294,912
│    │    └─BatchNorm2d: 3-42                      [16, 256, 26, 26]         512
│    │    └─LeakyReLU: 3-43                        [16, 256, 26, 26]         --
│    └─ResidualBlock: 2-21                         [16, 256, 26, 26]         --
│    │    └─ModuleList: 3-44                       --                        328,448
│    └─CNNBlock: 2-22                              [16, 128, 26, 26]         --
│    │    └─Conv2d: 3-45                           [16, 128, 26, 26]         32,768
│    │    └─BatchNorm2d: 3-46                      [16, 128, 26, 26]         256
│    │    └─LeakyReLU: 3-47                        [16, 128, 26, 26]         --
│    └─ScalePrediction: 2-23                       [16, 3, 26, 26, 8]        --
│    │    └─Sequential: 3-48                       [16, 24, 26, 26]          301,640
│    └─CNNBlock: 2-24                              [16, 64, 26, 26]          --
│    │    └─Conv2d: 3-49                           [16, 64, 26, 26]          8,192
│    │    └─BatchNorm2d: 3-50                      [16, 64, 26, 26]          128
│    │    └─LeakyReLU: 3-51                        [16, 64, 26, 26]          --
│    └─Upsample: 2-25                              [16, 64, 52, 52]          --
│    └─CNNBlock: 2-26                              [16, 64, 52, 52]          --
│    │    └─Conv2d: 3-52                           [16, 64, 52, 52]          12,288
│    │    └─BatchNorm2d: 3-53                      [16, 64, 52, 52]          128
│    │    └─LeakyReLU: 3-54                        [16, 64, 52, 52]          --
│    └─CNNBlock: 2-27                              [16, 128, 52, 52]         --
│    │    └─Conv2d: 3-55                           [16, 128, 52, 52]         73,728
│    │    └─BatchNorm2d: 3-56                      [16, 128, 52, 52]         256
│    │    └─LeakyReLU: 3-57                        [16, 128, 52, 52]         --
│    └─ResidualBlock: 2-28                         [16, 128, 52, 52]         --
│    │    └─ModuleList: 3-58                       --                        82,304
│    └─CNNBlock: 2-29                              [16, 64, 52, 52]          --
│    │    └─Conv2d: 3-59                           [16, 64, 52, 52]          8,192
│    │    └─BatchNorm2d: 3-60                      [16, 64, 52, 52]          128
│    │    └─LeakyReLU: 3-61                        [16, 64, 52, 52]          --
│    └─ScalePrediction: 2-30                       [16, 3, 52, 52, 8]        --
│    │    └─Sequential: 3-62                       [16, 24, 52, 52]          77,128
====================================================================================================
Total params: 8,985,992
Trainable params: 8,985,992
Non-trainable params: 0
Total mult-adds (G): 74.62
====================================================================================================
Input size (MB): 33.23
Forward/backward pass size (MB): 3350.19
Params size (MB): 35.94
…
