(pt3.7) C:\Users\paulc\Downloads\YOLOv3>C:/Users/paulc/.conda/envs/pt3.7/python.exe c:/Users/paulc/Downloads/YOLOv3/YOLOv3-CARRADA/model.py
----------------------------------------------------------------
        Layer (type)               Output Shape         Param #
================================================================
            Conv2d-1         [16, 16, 208, 208]             432
       BatchNorm2d-2         [16, 16, 208, 208]              32
         LeakyReLU-3         [16, 16, 208, 208]               0
          CNNBlock-4         [16, 16, 208, 208]               0
            Conv2d-5         [16, 32, 104, 104]           4,608
       BatchNorm2d-6         [16, 32, 104, 104]              64
         LeakyReLU-7         [16, 32, 104, 104]               0
          CNNBlock-8         [16, 32, 104, 104]               0
            Conv2d-9           [16, 64, 52, 52]          18,432
      BatchNorm2d-10           [16, 64, 52, 52]             128
        LeakyReLU-11           [16, 64, 52, 52]               0
         CNNBlock-12           [16, 64, 52, 52]               0
           Conv2d-13           [16, 32, 52, 52]           2,048
      BatchNorm2d-14           [16, 32, 52, 52]              64
        LeakyReLU-15           [16, 32, 52, 52]               0
         CNNBlock-16           [16, 32, 52, 52]               0
           Conv2d-17           [16, 64, 52, 52]          18,432
      BatchNorm2d-18           [16, 64, 52, 52]             128
        LeakyReLU-19           [16, 64, 52, 52]               0
         CNNBlock-20           [16, 64, 52, 52]               0
           Conv2d-21           [16, 32, 52, 52]           2,048
      BatchNorm2d-22           [16, 32, 52, 52]              64
        LeakyReLU-23           [16, 32, 52, 52]               0
         CNNBlock-24           [16, 32, 52, 52]               0
           Conv2d-25           [16, 64, 52, 52]          18,432
      BatchNorm2d-26           [16, 64, 52, 52]             128
        LeakyReLU-27           [16, 64, 52, 52]               0
         CNNBlock-28           [16, 64, 52, 52]               0
    ResidualBlock-29           [16, 64, 52, 52]               0
           Conv2d-30          [16, 128, 26, 26]          73,728
      BatchNorm2d-31          [16, 128, 26, 26]             256
        LeakyReLU-32          [16, 128, 26, 26]               0
         CNNBlock-33          [16, 128, 26, 26]               0
           Conv2d-34           [16, 64, 26, 26]           8,192
      BatchNorm2d-35           [16, 64, 26, 26]             128
        LeakyReLU-36           [16, 64, 26, 26]               0
         CNNBlock-37           [16, 64, 26, 26]               0
           Conv2d-38          [16, 128, 26, 26]          73,728
      BatchNorm2d-39          [16, 128, 26, 26]             256
        LeakyReLU-40          [16, 128, 26, 26]               0
         CNNBlock-41          [16, 128, 26, 26]               0
           Conv2d-42           [16, 64, 26, 26]           8,192
      BatchNorm2d-43           [16, 64, 26, 26]             128
        LeakyReLU-44           [16, 64, 26, 26]               0
         CNNBlock-45           [16, 64, 26, 26]               0
           Conv2d-46          [16, 128, 26, 26]          73,728
      BatchNorm2d-47          [16, 128, 26, 26]             256
        LeakyReLU-48          [16, 128, 26, 26]               0
         CNNBlock-49          [16, 128, 26, 26]               0
    ResidualBlock-50          [16, 128, 26, 26]               0
           Conv2d-51          [16, 256, 13, 13]         294,912
      BatchNorm2d-52          [16, 256, 13, 13]             512
        LeakyReLU-53          [16, 256, 13, 13]               0
         CNNBlock-54          [16, 256, 13, 13]               0
           Conv2d-55          [16, 128, 13, 13]          32,768
      BatchNorm2d-56          [16, 128, 13, 13]             256
        LeakyReLU-57          [16, 128, 13, 13]               0
         CNNBlock-58          [16, 128, 13, 13]               0
           Conv2d-59          [16, 256, 13, 13]         294,912
      BatchNorm2d-60          [16, 256, 13, 13]             512
        LeakyReLU-61          [16, 256, 13, 13]               0
         CNNBlock-62          [16, 256, 13, 13]               0
    ResidualBlock-63          [16, 256, 13, 13]               0
           Conv2d-64          [16, 128, 13, 13]          32,768
      BatchNorm2d-65          [16, 128, 13, 13]             256
        LeakyReLU-66          [16, 128, 13, 13]               0
         CNNBlock-67          [16, 128, 13, 13]               0
           Conv2d-68          [16, 256, 13, 13]         294,912
      BatchNorm2d-69          [16, 256, 13, 13]             512
        LeakyReLU-70          [16, 256, 13, 13]               0
         CNNBlock-71          [16, 256, 13, 13]               0
           Conv2d-72          [16, 128, 13, 13]          32,768
      BatchNorm2d-73          [16, 128, 13, 13]             256
        LeakyReLU-74          [16, 128, 13, 13]               0
         CNNBlock-75          [16, 128, 13, 13]               0
           Conv2d-76          [16, 256, 13, 13]         294,912
      BatchNorm2d-77          [16, 256, 13, 13]             512
        LeakyReLU-78          [16, 256, 13, 13]               0
         CNNBlock-79          [16, 256, 13, 13]               0
    ResidualBlock-80          [16, 256, 13, 13]               0
           Conv2d-81          [16, 128, 13, 13]          32,768
      BatchNorm2d-82          [16, 128, 13, 13]             256
        LeakyReLU-83          [16, 128, 13, 13]               0
         CNNBlock-84          [16, 128, 13, 13]               0
           Conv2d-85          [16, 256, 13, 13]         294,912
      BatchNorm2d-86          [16, 256, 13, 13]             512
        LeakyReLU-87          [16, 256, 13, 13]               0
         CNNBlock-88          [16, 256, 13, 13]               0
           Conv2d-89           [16, 24, 13, 13]           6,168
         CNNBlock-90           [16, 24, 13, 13]               0
  ScalePrediction-91         [16, 3, 13, 13, 8]               0
           Conv2d-92           [16, 64, 13, 13]           8,192
      BatchNorm2d-93           [16, 64, 13, 13]             128
        LeakyReLU-94           [16, 64, 13, 13]               0
         CNNBlock-95           [16, 64, 13, 13]               0
         Upsample-96           [16, 64, 26, 26]               0
           Conv2d-97           [16, 64, 26, 26]          12,288
      BatchNorm2d-98           [16, 64, 26, 26]             128
        LeakyReLU-99           [16, 64, 26, 26]               0
        CNNBlock-100           [16, 64, 26, 26]               0
          Conv2d-101          [16, 128, 26, 26]          73,728
     BatchNorm2d-102          [16, 128, 26, 26]             256
       LeakyReLU-103          [16, 128, 26, 26]               0
        CNNBlock-104          [16, 128, 26, 26]               0
          Conv2d-105           [16, 64, 26, 26]           8,192
     BatchNorm2d-106           [16, 64, 26, 26]             128
       LeakyReLU-107           [16, 64, 26, 26]               0
        CNNBlock-108           [16, 64, 26, 26]               0
          Conv2d-109          [16, 128, 26, 26]          73,728
     BatchNorm2d-110          [16, 128, 26, 26]             256
       LeakyReLU-111          [16, 128, 26, 26]               0
        CNNBlock-112          [16, 128, 26, 26]               0
   ResidualBlock-113          [16, 128, 26, 26]               0
          Conv2d-114           [16, 64, 26, 26]           8,192
     BatchNorm2d-115           [16, 64, 26, 26]             128
       LeakyReLU-116           [16, 64, 26, 26]               0
        CNNBlock-117           [16, 64, 26, 26]               0
          Conv2d-118          [16, 128, 26, 26]          73,728
     BatchNorm2d-119          [16, 128, 26, 26]             256
       LeakyReLU-120          [16, 128, 26, 26]               0
        CNNBlock-121          [16, 128, 26, 26]               0
          Conv2d-122           [16, 24, 26, 26]           3,096
        CNNBlock-123           [16, 24, 26, 26]               0
 ScalePrediction-124         [16, 3, 26, 26, 8]               0
          Conv2d-125           [16, 32, 26, 26]           2,048
     BatchNorm2d-126           [16, 32, 26, 26]              64
       LeakyReLU-127           [16, 32, 26, 26]               0
        CNNBlock-128           [16, 32, 26, 26]               0
        Upsample-129           [16, 32, 52, 52]               0
          Conv2d-130           [16, 32, 52, 52]           3,072
     BatchNorm2d-131           [16, 32, 52, 52]              64
       LeakyReLU-132           [16, 32, 52, 52]               0
        CNNBlock-133           [16, 32, 52, 52]               0
          Conv2d-134           [16, 64, 52, 52]          18,432
     BatchNorm2d-135           [16, 64, 52, 52]             128
       LeakyReLU-136           [16, 64, 52, 52]               0
        CNNBlock-137           [16, 64, 52, 52]               0
          Conv2d-138           [16, 32, 52, 52]           2,048
     BatchNorm2d-139           [16, 32, 52, 52]              64
       LeakyReLU-140           [16, 32, 52, 52]               0
        CNNBlock-141           [16, 32, 52, 52]               0
          Conv2d-142           [16, 64, 52, 52]          18,432
     BatchNorm2d-143           [16, 64, 52, 52]             128
       LeakyReLU-144           [16, 64, 52, 52]               0
        CNNBlock-145           [16, 64, 52, 52]               0
   ResidualBlock-146           [16, 64, 52, 52]               0
          Conv2d-147           [16, 32, 52, 52]           2,048
     BatchNorm2d-148           [16, 32, 52, 52]              64
       LeakyReLU-149           [16, 32, 52, 52]               0
        CNNBlock-150           [16, 32, 52, 52]               0
          Conv2d-151           [16, 64, 52, 52]          18,432
     BatchNorm2d-152           [16, 64, 52, 52]             128
       LeakyReLU-153           [16, 64, 52, 52]               0
        CNNBlock-154           [16, 64, 52, 52]               0
          Conv2d-155           [16, 24, 52, 52]           1,560
        CNNBlock-156           [16, 24, 52, 52]               0
 ScalePrediction-157         [16, 3, 52, 52, 8]               0
================================================================
Total params: 2,248,152
Trainable params: 2,248,152
Non-trainable params: 0
----------------------------------------------------------------
Input size (MB): 31.69
Forward/backward pass size (MB): 1869.07
Params size (MB): 8.58
Estimated Total Size (MB): 1909.33
----------------------------------------------------------------
…
